lstm.tflite (tflite, 80524 bytes, 14 tensors)

output/bias f4 [6]
000000 0a 90 a1 bf b5 cd 37 bf 25 24 07 c0 57 f7 15 3e
       -1.2622082 -0.7179826 -2.111581 0.14645134
000010 5f ec 91 bd 9e 19 27 c0
       -0.07125162 -2.6109385

std.constant2 f4 [64, 64]
000000 f4 8f c7 bc c9 9f c6 3d 93 37 9e bd 23 68 d3 3c
       -0.024360634 0.09698445 -0.07725444 0.025806492
000010 17 b2 fe 3c 0e ef 1a be 7d 4d b0 3d 8a c7 46 3d
       0.03109078 -0.15130255 0.0860853 0.04853014
000020 32 68 4e be 86 a1 ab 3d 72 77 1c be 5d aa 65 bd
       -0.20156935 0.083804175 -0.1527994 -0.056070674
000030 02 06 ba 3d 14 e2 23 be 11 a9 bb bd 58 c5 30 3e
       0.09083177 -0.1600421 -0.09163106 0.1726278
000040 de fd f7 3c 9c 60 1e 3e c6 b6 4e be b6 a0 89 bc
       0.03027242 0.15466541 -0.2018691 -0.016800266
000050 30 97 3b bc 57 58 eb 3d b4 0b 28 be 59 26 97 3d
       -0.01144962 0.11491459 -0.16410714 0.07380361
000060 90 0a 28 be 9a ab cf 3d de e6 41 bd ca 9d b6 3d
       -0.1641028 0.10140152 -0.047339313 0.089168146
000070 b3 47 64 bd d2 a8 48 bd ef ef 27 bb 95 d0 15 bc
       -0.05573244 -0.048989125 -0.002562519 -0.009143968
000080 a3 69 82 be 99 b1 99 bb dc da 56 3d e0 be 08 3e
       -0.2547122 -0.0046903607 0.052454814 0.13354063
000090 91 7d 47 be 78 03 56 3e 20 81 45 bd 66 9b bd ba
       -0.19481494 0.2089976 -0.048218846 -0.0014465868
0000a0 8e 7a f3 3d cc 3f 99 bd 9a c4 6d 3e 05 30 4a 3d
       0.1188861 -0.074828714 0.23219529 0.0493622
0000b0 c3 ef 1f 3e 6a d5 13 3d d0 4d 99 be f5 07 83 3e
       0.15618806 0.0360922 -0.2994218 0.25592008
0000c0 3a a3 1e be 91 cb ef 3d 49 3a 47 3c 2c 38 9f bb
       -0.15491953 0.11708749 0.012159892 -0.004858991
0000d0 a3 34 13 be 60 31 dd 3d 01 1e cb bd bd 9f 4e 3e
       -0.14375548 0.10800433 -0.09917832 0.20178123
0000e0 40 6c c2 bd 97 c9 24 be f2 3b 1b 3c 0c fb 22 3e
       -0.09493303 -0.16092525 0.009474741 0.1591608
0000f0 52 9c 09 bd 0a a1 ae 3a 1c 98 d2 bd de 1a 54 3d
       -0.033596344 0.001332314 -0.10282919 0.051783435
000100 09 10 c3 3d 89 b5 1b bd d4 2c b3 3e 29 92 e2 3d
       0.09524543 -0.038014922 0.3499514 0.11063034
000110 7b 21 58 3d 85 b6 d0 3d d4 94 19 be 7b f8 c9 bd
       0.052766304 0.10191063 -0.1499818 -0.09861847
000120 ff 83 d9 3d 71 54 f1 3c c0 05 03 3d 8c a8 9d 3e
       0.106208794 0.02945921 0.031987906 0.30792654
000130 0f 7d 08 3e 52 a5 ea 3b 78 99 a5 3d 7b f1 8c bd
       0.13328956 0.007160821 0.080859125 -0.06881996
000140 91 16 2e bc 80 d3 39 3e b4 ca 95 3c 5c e6 c5 bd
       -0.010625497 0.18147087 0.018285133 -0.09663078
000150 84 70 8e 3e 4d f7 ba bc c6 ce 9d 3e f9 62 19 3d
       0.27820218 -0.022823 0.30821818 0.037447903
000160 b8 04 01 3e ae 53 d9 3d a3 1f 83 3e 66 46 ab bd
       0.12599456 0.10611664 0.25610074 -0.08363037
000170 b8 00 4e 3e 72 d0 05 3e 7e 4f 31 be 5d 94 ef 3c
       0.20117462 0.13067797 -0.1731548 0.02924555
000180 86 66 49 be 8d 31 28 be b1 74 2d 3e 0c bb 29 3e
       -0.19668016 -0.16425152 0.16939045 0.16575259
000190 87 37 93 3d 35 38 37 3e c8 91 75 bd 16 ed c3 bb
       0.071883254 0.17892535 -0.05995348 -0.0059791906
0001a0 23 8a e9 bd 0a 7e 17 3d 72 a8 c9 bc d4 5a 04 ba
       -0.114033006 0.036985435 -0.024616454 -0.0005048935
0001b0 f9 c4 fc bc 4b 10 9a bd 84 8f b7 3d 6c fb 40 be
       -0.030855643 -0.07522639 0.0896292 -0.1884591
0001c0 0c 40 87 be a8 54 46 3d fd 31 25 bd 5d 6f 07 be
       -0.2641605 0.04842058 -0.040330876 -0.13226075
0001d0 4e 25 af 3d 10 f2 bd be 86 f4 0d 3d 22 1e 4e bd
       0.08552037 -0.37098742 0.034657024 -0.050321706
0001e0 04 0c 50 3d 8b 32 36 ba 39 3a 24 bd f6 fa 9d be
       0.05079271 -0.00069502805 -0.040094588 -0.3085553
0001f0 63 44 82 3d 5e b4 0b be 56 69 96 3e 7b 4a 84 bd
       0.063607 -0.13643023 0.2937724 -0.064595185
000200 af 63 6e bd 9e 03 85 bd a9 f9 53 be 07 65 65 be
       -0.058200534 -0.064948305 -0.20700707 -0.2240182
000210 6d fe 28 be 4e f0 4d 3e 68 f5 a8 bd 93 de b0 bd
       -0.16503306 0.201112 -0.082499325 -0.08636203
000220 c8 e7 21 3e 31 e3 d7 bd 49 85 d6 3b f4 2e 79 3d
       0.15811074 -0.1054138 0.0065466505 0.060835794
000230 f2 ae bc 3d af aa d3 bd 1d 68 e0 3c 7e ca 87 ba
       0.09213056 -0.1033529 0.027393395 -0.001036003
000240 92 db 64 3e 2d 8e 28 3d 5e 57 c7 bd 59 35 0d be
       0.22349384 0.041151214 -0.09733461 -0.13789882
000250 ca bb f3 3d 96 e5 c4 bd 4c 90 91 3e 7a 4f ea 3d
       0.11901052 -0.096141025 0.28430402 0.1144094
000260 e3 01 d5 bb 8c e2 d3 3d 61 f1 f1 bd 91 47 ca 3d
       -0.006500469 0.10345945 -0.118136175 0.098769315
000270 ae 41 1b 3c 25 e4 1b bd 4b 4b 36 3d b9 ac cb 3d
       0.0094761085 -0.038059372 0.0445054 0.099450536
000280 ef 2e 9a 3d f9 7d b9 bd 36 bd af bd f1 4a 07 3d
       0.07528483 -0.090572305 -0.08581011 0.033030454
000290 fb 92 94 bc 32 b5 4e be 1b 45 90 bd 20 aa bd 3d
       -0.018136492 -0.20186308 -0.07044431 0.092609644
0002a0 31 63 5a be 9b 07 bb bd 0c ee 8a 3d 6a ed 59 3d
       -0.21326901 -0.0913231 0.06783685 0.05320493
0002b0 e4 ee 05 be e5 be 0e 3c 7a f8 0f 3e ca bc 31 be
       -0.13079411 0.008712505 0.1405963 -0.17357174
0002c0 74 68 ba bd 4f 78 ca 3d da 52 f2 3d 9d cd 8a 3d
       -0.09101954 0.09886228 0.11832209 0.06777499
0002d0 45 af 85 3d bc 9b 99 bd a0 5c 10 3d 8e 42 80 3a
       0.06527571 -0.07500407 0.035244584 0.000978546
0002e0 52 03 aa bd a1 47 8c bd 0a 49 95 bc 49 4c f4 bd
       -0.083014145 -0.068496 -0.018223304 -0.11928613
0002f0 37 c0 48 be 10 7a 43 be cf 2e 67 3e 14 c4 3e be
       -0.19604574 -0.19089532 0.2257645 -0.18629485
000300 35 af 62 3d 81 dc 44 bd 9f 4f 0a bf bc fb cd be
       0.05534287 -0.04806185 -0.5402774 -0.4023112
000310 61 36 76 3e 45 6a b2 bb 60 85 87 bc 32 36 0c 3e
       0.24044181 -0.005444797 -0.01654309 0.13692549
000320 0c 48 9d 3c 3b 72 21 3e 97 b7 5d bc cc b3 59 be
       0.019199394 0.15766232 -0.013532541 -0.21259993
000330 26 a6 7b bd 4f 9c d6 bd d2 a4 c4 bd fc 66 f0 3b
       -0.06143775 -0.10479032 -0.096017495 0.0073364954
000340 96 b2 ea 3c 49 a6 83 3d e1 c8 15 be 4e 39 c2 3d
       0.02864961 0.06428201 -0.1462741 0.09483586
000350 a1 31 2c 3e 25 26 a7 bd 5a 1a eb 3c 2e 33 3f be
       0.16815807 -0.08161572 0.028699089 -0.18671867
000360 29 de e6 3d 75 36 0d 3f 02 0f 9a be 16 5c 43 3c
       0.112728424 0.5516122 -0.30089575 0.0119238105
000370 91 1f 11 be 41 c7 00 bd fd 54 ad 3d cf ed 2e bd
       -0.14172198 -0.031440023 0.08463476 -0.04270726
000380 82 c9 34 3d 9f 98 8e bd 6a d9 ac 3b 1b 76 de 3d
       0.044137485 -0.06962704 0.005274941 0.108623706
000390 9f cf ae be e3 f7 f2 3d 86 4c ca bd 53 a3 28 be
       -0.34142777 0.11863687 -0.09877877 -0.16468553
0003a0 4c 85 84 be f5 43 22 3d d6 13 15 3d a5 ae 6d 3d
       -0.25882947 0.03961559 0.03639587 0.058027882
0003b0 67 eb 07 3e 88 ce 2d 3e d0 f3 87 3e 3d 5a ae bd
       0.13273393 0.16973317 0.26553202 -0.08513305
0003c0 0b cf 55 bd 9a 46 95 be 52 2a b8 3d 52 e0 c8 bd
       -0.052199405 -0.29155427 0.08992447 -0.09808411
0003d0 d0 48 e2 bd c3 ac db 3d 5b 2f 89 be cc 79 00 3e
       -0.11049044 0.10726311 -0.26793942 0.12546462
0003e0 ab fd 43 be c8 2c 6e 3d b0 11 1a bd bb d2 04 bc
       -0.19139735 0.058148175 -0.037614524 -0.008106883
0003f0 40 42 48 bd 4d 0a 86 bd 6e e2 83 3e 5f e9 0f 3e
       -0.048891306 -0.065449335 0.2575869 0.14053868

std.constant3 f4 [64, 64]
000000 2a 65 d2 bc 37 1a 0f 3c b6 86 2d be 6c f8 94 3d
       -0.025683004 0.008734277 -0.1694592 0.07273945
000010 c9 56 d1 3d 39 b7 aa be 2f 27 5e bc f0 51 c0 bd
       0.10221631 -0.33342913 -0.013559147 -0.09390628
000020 7e 9f 6c be e6 cf 58 3d 49 12 24 3c ad 48 1f be
       -0.23107716 0.052932642 0.010014125 -0.15555067
000030 31 a2 b3 3d 93 f9 0a 3e a6 30 3e bd ee cc 82 3e
       0.0877117 0.13571768 -0.046433114 0.25546974
000040 b7 6e 2e be e3 51 da 3d 85 8c f1 bc e4 45 02 3e
       -0.17034422 0.1066015 -0.02948595 0.12721974
000050 f2 9d 43 be f3 50 3d 3e db 53 95 be 8b ac 04 bc
       -0.1910322 0.18487911 -0.2916554 -0.008097778
000060 7b 1e cb bc fe 56 4b 3e d8 fc 31 be 90 33 2f be
       -0.024794808 0.19857404 -0.17381608 -0.17109513
000070 eb 3a 24 be c8 95 39 be 3e f9 9e bd 2b ca 03 bd
       -0.160381 -0.18123543 -0.07762383 -0.032175224
000080 08 1d 4a be ce f7 6a bd 4a c7 0c 3e 5b 8c b3 3c
       -0.19737637 -0.05736523 0.13747898 0.021917513
000090 bb 99 af bc 61 e0 2a 3e c6 7f ad bd 04 42 91 bd
       -0.02143561 0.16687156 -0.084716365 -0.070926696
0000a0 67 18 43 3e 4a 03 2f bd b8 c3 f5 3d c2 44 e7 bd
       0.19052278 -0.042727746 0.12000221 -0.112924114
0000b0 6f d6 89 3e ee 3f 42 3e 69 de c4 be f2 b5 67 3e
       0.26921412 0.189697 -0.38450935 0.22628
0000c0 92 1b 22 bd 28 9e f8 3c e3 cb 35 be c8 5e a5 bd
       -0.039577074 0.030348852 -0.17753558 -0.08074719
0000d0 0b ab c4 3d 5b 0a 62 3c 6f 98 0e be 02 f3 40 3e
       0.09602936 0.013796414 -0.13925336 0.188427
0000e0 ba 40 45 bd e9 4e 9c be 37 d7 62 3d ea b0 15 3e
       -0.04815743 -0.30528954 0.055381026 0.14618269
0000f0 6c 05 78 3c f8 77 b3 bc cb bc 24 be 90 60 eb 3d
       0.015138011 -0.021907791 -0.16087644 0.11493027
000100 11 56 82 3e 73 95 e6 bd 0d 81 85 3e d4 26 60 bc
       0.25456288 -0.11258974 0.2607502 -0.013681132
000110 fc a1 1a 3e 61 18 2d 3e c1 1e 8d be e6 29 bd bd
       0.15100855 0.16903831 -0.27562526 -0.09236507
000120 ca 93 7e 3e 77 b0 f6 3c 6f 12 a3 3d 41 a2 84 3e
       0.24861065 0.030113442 0.079625 0.2590504
000130 58 88 04 3e 35 af 70 3c 0a 74 f5 3d e1 1c 21 be
       0.12942636 0.01469021 0.11985023 -0.15733673
000140 28 62 2d 3e 5b 0b e0 3c 08 5f f9 bc 95 ba 0e 3e
       0.16931975 0.027349165 -0.030440822 0.13938363
000150 5a 89 4d 3e a3 cd 6e 3d e6 c7 10 3e e3 70 42 3e
       0.20071927 0.05830158 0.14138755 0.18988375
000160 20 d2 54 3e 62 e7 61 3e 6d 7a 18 3e 4d f9 f4 3d
       0.20783281 0.22060922 0.14890452 0.11961613
000170 b0 ea 62 3e 30 5c 02 3e 08 ee c3 bd a5 0a 07 3e
       0.22159839 0.12730479 -0.09566885 0.13187654
000180 23 08 b1 bd f4 c3 fc bd 4b 3e 8a 3e 33 b2 71 bd
       -0.0864413 -0.123420626 0.2700065 -0.059007835
000190 fd 69 d8 bd ee 76 a8 3e cc 82 94 3c 63 5f ad 3d
       -0.10567091 0.32903236 0.018128775 0.08465459
0001a0 1a 58 ea bd 9e b7 2a be 88 5e 8e 3d 0b 30 68 3e
       -0.11442585 -0.16671607 0.06951624 0.22674577
0001b0 e6 2d 01 be 04 2f 39 bd 75 ed 25 3e 80 ee f7 37
       -0.12615165 -0.045210853 0.16203864 2.9555755e-05
0001c0 d7 f3 bb be 6c a4 83 3d 28 0e 19 3e 3b 3e 9b 3d
       -0.36709473 0.06427845 0.14946806 0.07580229
0001d0 d6 65 0a be 66 52 4d be 19 94 f7 3d 65 b3 0f be
       -0.1351541 -0.20050964 0.12088794 -0.14033277
0001e0 1f f1 71 3d ba 6b 69 bc 23 c4 1f 3e 2e c1 b8 be
       0.05906784 -0.014246875 0.15602164 -0.36084884
0001f0 d1 9f 19 3e 13 62 8f be 1f 7e 2a 3e bf 14 80 be
       0.15002371 -0.28004512 0.16649674 -0.25015828
000200 da 63 75 be e2 50 ca bc 7a eb 8c be a9 d3 63 be
       -0.23963872 -0.024696771 -0.27523404 -0.2224871
000210 d7 b2 35 be 1e 14 18 3e b5 fc 00 bd 3d d3 8a bb
       -0.17744003 0.14851424 -0.031491 -0.0042366073
000220 89 66 89 3e 4b ff b4 bd eb 6d 34 3d b6 2a 3b 3c
       0.2683604 -0.08837756 0.04405014 0.011423757
000230 55 f4 3e 3d 7d 77 cf bd 56 32 21 3e c7 5c 25 be
       0.046619732 -0.101302125 0.15741858 -0.16148673
000240 45 b6 54 3e 6a f9 0c 3e 51 e6 fe 3d 23 05 dc bd
       0.20772655 0.13767019 0.12446273 -0.10743167
000250 a8 b2 b3 3d b7 01 53 be 34 06 15 3e 51 ad 93 3e
       0.0877431 -0.20606123 0.14553148 0.28843167
000260 99 3c 8f bd c6 16 70 3d 1b 4c f7 bd 53 7b 4b 3e
       -0.0699398 0.05861547 -0.12075063 0.19871263
000270 c0 33 0a bd 69 75 08 3e 5d c7 53 3d 67 f8 49 3e
       -0.03374076 0.13326038 0.0517038 0.19723664
000280 59 12 6b 3d 60 be 1c be ff 20 b7 bd 97 df 5f 3b
       0.057390545 -0.15306997 -0.089418404 0.003416037
000290 c9 8f 88 bd be be e2 bd b2 4d 24 bd 4d 9d 3d 3e
       -0.0666805 -0.110715374 -0.04011316 0.18517037
0002a0 2a 5f d1 bd c2 08 99 bd 3e b3 a4 3d ff ce 7e 3e
       -0.10223229 -0.074723735 0.08042 0.2488365
0002b0 80 8a 59 be c1 ce ed bd 84 f5 c4 3d 7b a8 e9 bd
       -0.2124424 -0.11611701 0.09617141 -0.11409088
0002c0 8e 8f 95 3d c3 c4 51 3b 1f 34 58 3e 7b 41 92 bd
       0.073027715 0.0032008148 0.21113633 -0.07141396
0002d0 ee bb c0 3d 63 75 bb bc b0 45 28 bd fc bb dc bc
       0.09410845 -0.022883123 -0.041082084 -0.026945107
0002e0 ac 93 1f be c9 39 1c 3e 8c 29 d9 3d 93 d3 c7 bd
       -0.15583676 0.15256418 0.106036276 -0.097571515
0002f0 c8 4d 31 be 71 76 14 be e9 d5 3f 3e 8d 0e 0f bd
       -0.17314827 -0.14498307 0.18733944 -0.034925986
000300 77 ed 33 3c 05 08 0a 3d 2b 36 24 bf a3 ac d5 be
       0.010981909 0.033699054 -0.64145154 -0.41733274
000310 b7 00 ee 3c c9 0e b4 3d 7b 57 27 bc 2e 9e 18 3e
       0.029053075 0.087918825 -0.010213728 0.14904091
000320 50 db 73 3e f5 9e dc bb 29 5a 39 3e 1e 76 80 be
       0.2381413 -0.0067328163 0.181008 -0.25090116
000330 3b 98 70 be ba eb fb bd 78 d2 73 bd e8 92 e8 3c
       -0.23495571 -0.12300821 -0.05952689 0.028390363
000340 88 10 3d bd 59 1a 37 bd 4f 53 8e 3c f3 8d 8e bd
       -0.046158344 -0.04470286 0.017373709 -0.069606684
000350 50 d3 92 3d 24 d5 d1 bd 9c 08 0e 3d 30 de 1f bc
       0.07169211 -0.102457315 0.03467618 -0.0097575635
000360 39 80 51 3d b1 ae e2 3e b8 78 d8 be fc ab 00 3e
       0.051147673 0.44273904 -0.422796 0.12565607
000370 c4 3b a7 be 3b 01 df bd 58 8c 89 3e 5e 4f 85 3d
       -0.32662785 -0.108889066 0.26864886 0.06509279
000380 5e d8 a3 3d 7f 08 ce bd 35 d9 55 bd 34 14 ce 3d
       0.08000253 -0.10060214 -0.052209098 0.10062447
000390 a6 e1 ce be 95 78 98 3e 18 5c 92 bd f4 cb 80 3e
       -0.4040653 0.29779497 -0.07146472 0.25155604
0003a0 ea c0 8a be cd 69 8e bd f0 48 bc 3d 61 d2 c1 3d
       -0.27100307 -0.06953774 0.09193599 0.09463955
0003b0 8f 69 c7 bb 11 7c 3b bb c2 42 07 3e d3 04 a6 bd
       -0.0060855816 -0.0028607885 0.1320906 -0.08106389
0003c0 3f 88 41 be d5 38 35 bd a7 75 ad 3d be b1 57 ba
       -0.1889963 -0.044243652 0.08469706 -0.0008228085
0003d0 ce 4a 29 be f7 98 66 3e d6 51 cc bd 47 69 ab 3e
       -0.16532442 0.22519289 -0.099765465 0.33478758
0003e0 e3 6b 74 be ec ff 88 3d f5 b9 58 3e 9a 64 ea 3c
       -0.2386928 0.06689438 0.21164687 0.028612424
0003f0 18 18 2b be 4e 03 77 bd 62 87 35 3e 92 99 50 bd
       -0.1670841 -0.060305886 0.17727426 -0.050927706

std.constant4 f4 [64, 64]
000000 32 f2 b6 bd 81 f6 b2 3d 64 32 28 3e ef 17 03 3e
       -0.08932914 0.08738423 0.16425472 0.12802099
000010 c4 4c f7 3d 2c 00 ff 3d fe 27 03 be 60 5f 6e 3d
       0.12075189 0.12451205 -0.12808225 0.058196425
000020 5f 25 d4 bd 85 f8 53 bd dc f6 e0 3d cd e5 d7 bd
       -0.103586905 -0.05175068 0.10984585 -0.10541878
000030 ae 42 f3 3d 0f ae b1 3d 97 67 31 3e c1 fb 32 be
       0.118779525 0.08675777 0.17324673 -0.17478849
000040 2e a9 49 3d 80 ab 01 be 66 8b c2 3d 06 8c 21 bb
       0.049233608 -0.12663078 0.094992444 -0.002465011
000050 3f c6 03 3e 22 c5 32 3c 38 93 5f bc b9 20 3a be
       0.12868594 0.010911258 -0.0136459395 -0.18176545
000060 ba 3f b7 bd ee 7c cd 3d 70 ed 5c 3d 51 aa 8a bc
       -0.08947702 0.10033594 0.053937376 -0.016926916
000070 bc 23 3e be 61 1d b0 bd 91 9d 9d bd 10 56 2e bd
       -0.18568319 -0.085993536 -0.07696069 -0.042562544
000080 ef 9f 04 3e bd 80 fa bd a2 ea af bd ad 2b 27 be
       0.12951635 -0.12231586 -0.085896745 -0.16325255
000090 fc d9 d0 3c be 6b f2 3c 81 6c 81 bc 44 cd ff 3b
       0.025494568 0.029592391 -0.015798809 0.007806452
0000a0 89 79 ec bd ff 6b a9 3d 45 13 7f bc ea 6f b4 3c
       -0.115466185 0.08272552 -0.015568559 0.022026021
0000b0 41 5b b9 bd 61 f1 40 bd 9f 74 05 3d c0 66 08 38
       -0.090506084 -0.047105197 0.03258192 3.252062e-05
0000c0 39 78 13 3e 91 01 5b 3c 29 52 53 be f9 ba 77 3d
       0.1440133 0.013367073 -0.2063681 0.060481045
0000d0 95 db 90 bd bc 29 91 bd 51 ff f6 3c 36 c0 58 bd
       -0.07073132 -0.07088038 0.030151041 -0.05291768
0000e0 d8 ad ef bc cd a9 38 3d 48 f3 7a bc 50 7b e4 bc
       -0.0292577 0.04508381 -0.015316792 -0.027890831
0000f0 00 27 bd 3d 34 8a 27 bd 5f 53 33 3d 0f b6 d0 3c
       0.09235954 -0.040903285 0.04378068 0.025477437
000100 5c cf 95 3c cd 80 91 3d c6 2a 1a 3d 1e 24 62 3c
       0.018287353 0.07104645 0.03763845 0.013802556
000110 1d 8b ba 3d 1f 6d 35 bd db c4 ca bd bc 3f 12 3d
       0.09108565 -0.04429352 -0.099008285 0.035705313
000120 ec e0 12 bd a8 ea c7 3d 22 dd 14 be 7f 90 b6 bd
       -0.035859033 0.09761554 -0.1453748 -0.08914279
000130 48 a8 79 bd 7e 37 31 bd f5 64 18 3e c5 87 dd 3c
       -0.0609515 -0.043265812 0.14882262 0.027042279
000140 39 b9 f8 3d 8f 6d 2b bd 45 9f 0b 3c b3 70 87 bd
       0.121447034 -0.04185253 0.0085218595 -0.066132925
000150 01 07 ac 3d 77 53 e0 bd a0 8f 6b 3b 8b 89 29 3c
       0.083997734 -0.1095342 0.0035943761 0.010347734
000160 0d 58 4d bd 0f f0 ac 3b 4d 62 f6 bd 11 8d af bc
       -0.0501328 0.0052776407 -0.12030468 -0.02142957
000170 a9 61 0a 3d 48 0c ae 3c 08 4c 18 3d 62 c1 de 3c
       0.033784542 0.02124609 0.037181884 0.027191821
000180 c0 12 57 3d 0d dc 18 be a6 e9 08 3d 38 ea 6c bd
       0.052508116 -0.14927693 0.03342595 -0.057840556
000190 36 ae 66 be db 1e 57 3d 3f 16 3d bd b9 95 e6 bd
       -0.22527394 0.05251966 -0.046163794 -0.11259026
0001a0 bf b7 ea bc 55 90 13 bb e1 f7 34 3e c8 3a 50 3d
       -0.02865207 -0.0022516449 0.17672683 0.05083731
0001b0 d9 ea 0a 3e 23 3a e8 3d b6 a7 ca ba 8b fa 54 3d
       0.1356615 0.11339214 -0.0015461359 0.05199675
0001c0 68 44 1b bd 7f 6c 38 3d 20 b9 1c 3e c4 26 33 3d
       -0.037907034 0.045025345 0.15304995 0.04373814
0001d0 bf 16 41 3e 52 db 4b 3e 18 75 1b be d8 40 f9 3b
       0.18856333 0.19907883 -0.15181386 0.007606607
0001e0 f9 04 95 3c b3 e6 a4 bd 14 39 bd 3d 0a 69 1a 3d
       0.018190848 -0.08051815 0.092394024 0.03769783
0001f0 a4 9d 37 be 80 a7 dc 3c 7e 95 46 be d8 3f ac 3d
       -0.17931229 0.026935339 -0.19392964 0.08410615
000200 77 20 82 bd 2b ad 97 3d 64 cc d2 3d d8 c7 1a 3e
       -0.063538484 0.07406076 0.10292891 0.15115297
000210 26 f7 0a 3c 09 3d 80 bd d4 b5 40 bc e0 c6 e5 bb
       0.008481776 -0.062616415 -0.011762101 -0.007012233
000220 59 e0 a9 bd 53 25 bc 3d 5a f6 d2 bd 4b e9 c3 bd
       -0.08294744 0.091868065 -0.10300894 -0.095659815
000230 a4 4f b6 bd 6d cb 45 3e cb ef 0b be e9 d9 99 3d
       -0.08901909 0.19315882 -0.13665693 0.07512266
000240 3d bf c7 3d a9 c6 3b be d4 bf 22 3d e0 c4 60 3d
       0.09753273 -0.18337502 0.039733723 0.054875255
000250 8d b0 27 bd 2f d7 85 3d ee 24 5f bc 90 76 fc bc
       -0.040939856 0.06535184 -0.013619645 -0.030818254
000260 fa 98 dc bd 31 6d a8 bd fe c9 b4 bc 21 2e 14 bd
       -0.107713655 -0.082239516 -0.022068974 -0.036176804
000270 f4 7d 9f bd 2f 37 38 be 92 6e 1e 3d 23 f1 0a 3d
       -0.077876955 -0.17989801 0.038679667 0.033921372
000280 bd d1 2a 3e 89 63 02 bd 2d 4d 65 bd ce 82 6b bc
       0.16681571 -0.031833205 -0.055981804 -0.014374448
000290 8c d8 a9 bc 2e b4 5a bc 8b 15 f2 3a b3 af 27 3d
       -0.02073314 -0.013348622 0.0018469555 0.040939044
0002a0 29 65 d2 bd ef 97 33 3e c2 74 1b bd 8a 3b ce 3c
       -0.10273201 0.17538427 -0.037953146 0.025174875
0002b0 ff 35 28 3e af 66 ad bc fb 59 e0 bc a6 5c 8f bd
       0.16426848 -0.021167127 -0.027386656 -0.07000093
0002c0 b5 06 ed bc 67 03 27 3d a0 e4 2b 3b 4d f3 97 3c
       -0.028933862 0.04077473 0.00262288 0.018548632
0002d0 62 ba 96 3c 42 2e a8 3d 7f b3 19 be 8d 98 84 bd
       0.018399421 0.08211948 -0.15009879 -0.06474409
0002e0 f7 ad ec 3d d2 f2 6d 3d 2b 15 05 bd 19 9e 52 bb
       0.11556619 0.0580929 -0.03249089 -0.003213769
0002f0 25 69 4d be b7 2f 2c 3e 81 dc 25 3d ea 8c f4 3d
       -0.2005964 0.16815077 0.040493492 0.1194094
000300 20 a2 cb bd 4f cf 89 3d d1 24 83 3e cd 27 20 3e
       -0.09943032 0.06728994 0.25614026 0.15640183
000310 c1 ed ab 3c 20 63 16 3d 04 d7 36 3c 9b 1a 9c 3d
       0.020987393 0.036715627 0.011159662 0.07622262
000320 9d 64 94 bb 3c e3 73 bd a8 04 ab bc 5c 3a ca 3d
       -0.0045285956 -0.05954288 -0.020876244 0.098744124
000330 fa 95 8c 3d 2c 6f 26 be c8 4a ba 3d e4 93 08 be
       0.06864543 -0.16253346 0.09096295 -0.13337666
000340 af cb a6 3d ed 77 b4 3c d1 95 a6 bd c9 ba 01 bd
       0.08144318 0.022029841 -0.08134044 -0.031672273
000350 fd f9 88 3d 93 74 ac bc 29 3b 0c bd 38 58 10 3e
       0.066883065 -0.02105168 -0.034236107 0.14096153
000360 4b 0a e1 bc 59 a1 d9 3d c0 3a 8f 3e 07 16 93 3d
       -0.027470728 0.10626478 0.2797451 0.07181936
000370 ec de cb bd 14 fa 59 3d c5 7e 1b ba 54 b5 36 3e
       -0.09954628 0.05321701 -0.0005931671 0.17842609
000380 b7 db 1f be 4a 3f b9 3c e6 8c 90 3d c6 b4 28 bd
       -0.15611158 0.022613186 0.07058124 -0.041188024
000390 12 69 85 bb 8f f5 68 bc d8 33 f3 3c f3 ae 9c bb
       -0.0040713632 -0.014218702 0.029687807 -0.0047815978
0003a0 08 e2 77 3d d8 ea 0f be 24 b9 66 bc 6b 98 02 be
       0.060518295 -0.1405443 -0.014082227 -0.12753455
0003b0 58 14 3b 3c 77 ad 82 3c 96 25 2d be 77 47 41 3c
       0.011418425 0.015951855 -0.16908869 0.011796824
0003c0 da 41 97 3c cc 37 e8 3d 3b a0 c3 3d 2a 96 21 3d
       0.018464018 0.113387674 0.09552046 0.03944985
0003d0 23 08 d4 3c 63 d2 cd bd 28 3f 84 3c f2 44 a1 bd
       0.025882786 -0.10049894 0.016143396 -0.078744784
0003e0 8f 38 19 3d 0d 91 01 bd b4 d9 60 3d ad 73 9a 3d
       0.037407454 -0.03163247 0.054895118 0.07541595
0003f0 06 52 96 3d 6f 35 13 be 90 ff be bc a2 6e da 3b
       0.073398635 -0.14375852 -0.023315221 0.0066660205

std.constant5 f4 [64, 64]
000000 85 47 02 3d 66 d2 b7 3d d7 df 65 be 6d 10 2f 3d
       0.031806488 0.08975677 -0.2244867 0.042740274
000010 23 1a f8 3d 13 86 7d bd 0c 69 44 3c e0 bd 12 be
       0.1211436 -0.06189544 0.011987936 -0.14330244
000020 df 10 84 be 48 5d d2 3d b4 8e 84 3d bb 4a 15 bd
       -0.25794122 0.10271698 0.06472531 -0.03644822
000030 e7 ed 02 3e 0a 70 b1 3d fc fb 79 bc 1f 1b 2c 3e
       0.12786065 0.08663948 -0.015257832 0.16807221
000040 6a ba e0 bd cb b2 30 3e cb ca 81 bd fa df 0b be
       -0.10973056 0.17255704 -0.06337508 -0.13659659
000050 da bd 1f be 39 44 39 3e 46 64 7c be 8b b5 71 bd
       -0.15599766 0.18092431 -0.24647626 -0.059011023
000060 7a 0d 44 be e3 d8 f7 3d 94 1e 34 3d b3 03 37 bd
       -0.19145766 0.12101915 0.043974474 -0.044681262
000070 34 05 f2 bc 99 5c 98 be 8a ea 7d bd 81 74 75 3c
       -0.029543497 -0.29758146 -0.061991252 0.01498139
000080 a7 05 03 be 48 2a d0 3d d1 76 b0 3d 0b 67 ff 3b
       -0.12795125 0.101643145 0.086164124 0.007794266
000090 e0 4e 38 be aa da a4 3d b9 be eb bd 07 26 22 be
       -0.17998838 0.08049519 -0.11510987 -0.15834819
0000a0 53 dc 7c 3d 8e 8b 3f bd b1 ac 0e 3d 83 62 18 be
       0.061733555 -0.04676395 0.03483266 -0.14881329
0000b0 87 4a 7c 3e 4e af e6 bb d7 1e 41 be bb db 43 3e
       0.24637805 -0.007039941 -0.1885942 0.1912679
0000c0 53 3d 98 bd 6b 6f 0b 3d 29 4e 39 be b6 3d 55 be
       -0.07433572 0.034041803 -0.18096222 -0.20824322
0000d0 16 ae b1 bb 4b 14 c7 3c 2e 68 27 be 1f 28 35 3e
       -0.005422364 0.024301669 -0.16348335 0.17691086
0000e0 45 6c 46 be d4 0c c4 bc cb 15 bd 3d 2b 17 8e 3d
       -0.19377239 -0.023931898 0.09232672 0.06938013
0000f0 40 65 2e 3d 70 c3 33 bd 7f e9 38 be aa 41 dd bd
       0.04257703 -0.043887556 -0.18057822 -0.1080354
000100 4e 7e 70 3d 3a b5 84 bd 47 76 bd 3e b2 68 a0 bc
       0.058714204 -0.06479879 0.370043 -0.019581173
000110 20 d7 91 3e e0 68 86 bc 1f fa 7c be cc 11 1e bc
       0.2848444 -0.01640743 -0.24704789 -0.009647798
000120 2b f2 36 3e ea 3c ec 3d 2e cc 4e bc c5 20 57 3e
       0.17865817 0.11535056 -0.012621922 0.21008594
000130 e2 94 d9 3d 4d c7 55 bd 01 de b6 3d 87 d7 f1 bd
       0.106241 -0.05219202 0.08929063 -0.11808687
000140 70 fd e8 3d 94 4c ca 3d 91 2c 36 bc 96 ce 8d 3d
       0.11376464 0.09877887 -0.011119024 0.06924169
000150 9e f0 96 3e 57 23 88 3c b6 ae 92 3e 09 e1 5b 3e
       0.2948045 0.016618414 0.2864892 0.21472563
000160 58 8c e2 3d 3a 83 76 3d b6 44 4e 3d b2 03 5c ba
       0.11061925 0.06018374 0.050358497 -0.00083928846
000170 2c b9 70 3e ba d2 92 3d 7d 04 6f be 70 50 f6 ba
       0.23508137 0.07169099 -0.23341556 -0.0018792283
000180 54 41 9e 3d b4 20 f4 bd 45 5c 30 3e 85 32 4b bc
       0.07727304 -0.119203 0.17222698 -0.0124021815
000190 83 c9 b5 3d b4 83 90 3d e4 31 2b 3e 84 5e 38 bd
       0.08876326 0.070563704 0.1671825 -0.045012012
0001a0 1a 1e 3c be 1f 07 1c bd fe f2 63 3d 6e f0 db 3d
       -0.18370858 -0.03809273 0.055651657 0.10739218
0001b0 d5 87 60 bc 85 7f e5 3d 82 c7 1b 3e e2 af 5d bc
       -0.01370426 0.11205963 0.15212825 -0.013530703
0001c0 c3 1c 9b be 3d 2c 6a 3d 65 13 c5 3c 6f 10 8e bd
       -0.3029538 0.057171095 0.0240571 -0.06936728
0001d0 75 fe 0f 3d 1c 59 6e be f6 13 9c 3d e9 e6 07 be
       0.03515478 -0.2327618 0.07620995 -0.13271679
0001e0 1c 66 56 3e 6f 9e a9 3d e5 20 15 3e c2 a5 4d be
       0.20937389 0.08282172 0.1456333 -0.20082763
0001f0 fa 69 40 3e 1a ab 20 bd b9 c8 37 3e c7 a4 93 bd
       0.18790427 -0.039225675 0.17947663 -0.07209163
000200 54 94 1e be 4a 67 4b 3c eb ae 83 be 6e b9 2e be
       -0.1548627 0.012414763 -0.2571939 -0.17062923
000210 ed a3 c1 bc 7d 76 c0 bd 00 a9 03 3e d0 47 2b 3e
       -0.023637736 -0.093976 0.12857437 0.16726613
000220 75 a5 67 3e a0 f6 b1 bd e1 23 6a 3d ca 34 a9 3a
       0.2262171 -0.08689618 0.057163123 0.0012909409
000230 ce b7 e0 3d 92 ee 5d be d7 05 23 3e 77 ef c3 bd
       0.10972558 -0.21673039 0.15920196 -0.09567159
000240 b9 6a 90 3e a5 e4 b5 3d 98 5f e8 3d 42 98 bb bd
       0.28206423 0.08881501 0.11346358 -0.091599
000250 79 75 7f 3e 96 db 79 be 1e 81 a9 3e 1e a9 c4 3e
       0.24947156 -0.24400172 0.3310632 0.38410276
000260 58 ed 23 bd dc 85 83 3d d7 8b 1c be 6f 4b a4 3d
       -0.04002127 0.06422016 -0.1528772 0.080222
000270 aa 6c 01 3e d9 86 a6 3d c5 81 12 3e 75 41 88 3e
       0.12639108 0.08131189 0.14307316 0.2661244
000280 9f f9 59 bd c7 05 ae bd 79 51 4a bd 21 57 4e bd
       -0.053216573 -0.08497196 -0.049394105 -0.05037606
000290 0f 8e 1b be 19 d0 b0 bc 25 a5 7c 3d 91 69 c7 3d
       -0.1519091 -0.021583604 0.06168093 0.09736932
0002a0 d5 3c 01 be 9d 8e 19 be 50 e6 ad 3e 22 f1 0e 3e
       -0.12620862 -0.14995809 0.33964777 0.13959172
0002b0 55 64 bb bd 1f f2 e8 3c ea 14 62 3d f5 e9 6b be
       -0.09149996 0.028435765 0.055195726 -0.23038466
0002c0 07 83 1e be 3b ea 26 3e 00 7f b2 3e 02 c1 b4 bd
       -0.1547967 0.1630029 0.34862518 -0.08825876
0002d0 3f ff 19 3d 09 fb 4b 3d 4d 95 3a bd bb 67 8a 3d
       0.037596937 0.049799953 -0.04555254 0.06758066
0002e0 ab 31 ab bd c6 25 2e bd 13 b8 4c 3d 2e 0b 52 bd
       -0.08359083 -0.042516492 0.049980234 -0.051280193
0002f0 2f a6 c1 be ab a9 51 be 4b 8c 62 bd 13 a1 98 be
       -0.378221 -0.2047488 -0.055309575 -0.2981039
000300 a6 4b 97 bd 49 2c 0b bd 28 bc b1 be a1 b5 6b be
       -0.07387476 -0.03397778 -0.34713864 -0.23018505
000310 48 a2 91 3e 8f 08 5e be 20 c1 04 3d 5e cf fd 3d
       0.28444123 -0.21682952 0.03241074 0.12393068
000320 d4 1d da 3d a0 14 ef 3d 07 25 ad bd 76 8a c8 3d
       0.106502205 0.11673856 -0.08454328 0.09792034
000330 83 c2 e1 3d 21 20 78 be 47 f4 9b bd 83 13 12 3d
       0.11023428 -0.24231006 -0.076149516 0.03566314
000340 1a 55 93 bd 59 66 a3 3d 9a b6 53 be 9d 80 46 3e
       -0.07193966 0.07978506 -0.20675126 0.19385
000350 e4 7d 84 3e 69 c2 47 be 96 d9 9b 3e 16 0e 62 3e
       0.25877297 -0.19507755 0.30439442 0.22075686
000360 bc 1f be 3d 5d 3b a1 3e 47 b6 21 be 7e 1e 37 3d
       0.092833966 0.31490603 -0.1579219 0.044706814
000370 7a eb 04 3d f7 96 25 be 44 ce eb 3d a3 d9 ee bd
       0.03245113 -0.1617087 0.115139514 -0.11662605
000380 9b 10 81 3d 46 02 3c 3c a0 33 5a 3e c5 a5 63 3c
       0.06301995 0.011475151 0.21308756 0.013894503
000390 b7 39 f9 bd b2 cf 14 3d e3 f8 9b bd de c3 38 be
       -0.12169211 0.036330886 -0.07615831 -0.18043467
0003a0 27 08 b7 be ed 5f a3 bd de ea 52 3e ca 58 30 3e
       -0.35748407 -0.07977281 0.20597407 0.1722137
0003b0 12 12 ba 3d a9 d0 4e 3e 6c 79 4d 3e 87 0f 13 bd
       0.09085478 0.20196785 0.2006585 -0.03590348
0003c0 38 e9 90 bd f2 54 5a be a3 c9 41 3e fb df 14 3d
       -0.07075733 -0.21321467 0.18924575 0.036346417
0003d0 9e 39 f9 bc cc cc 32 bd 51 4d 95 bd 1d 01 98 3d
       -0.030422982 -0.04365234 -0.072901376 0.07422087
0003e0 29 b0 1a be e0 f8 5e 3d 3b e6 06 3e ac e8 23 bc
       -0.15106262 0.054436564 0.13173763 -0.010004204
0003f0 80 4c ab bd a2 cf 3a 3c 3b 43 3e 3e 93 79 de 3c
       -0.083642006 0.011402043 0.18580334 0.02715758

std.constant6 f4 [64]
000000 16 26 bb bd 20 ff d6 bd 1b 27 0d be 6a 5f 55 bd
       -0.09138124 -0.1049788 -0.13784449 -0.052092947
000010 87 f6 dd 3c 0d f6 83 3d 69 64 57 bd 10 69 d8 bd
       0.027095092 0.06443415 -0.052585993 -0.10566914
000020 46 ed bf 3d 09 63 b0 bc 87 39 bb bd 7a 36 0d 3e
       0.09371428 -0.021531599 -0.09141832 0.13790312
000030 ba 2e 6c bd 9f f1 11 be 08 fe 7f 3d 04 45 28 3d
       -0.05766175 -0.14252327 0.062498122 0.041081443
000040 b6 33 5d bd 9d 5d 1f be dc 45 b6 bd d1 f0 38 3d
       -0.054004394 -0.15563054 -0.08900043 0.045151535
000050 2e 98 fd bc 08 ba f7 bd 48 40 90 3d 9c 96 84 3d
       -0.030956354 -0.120960295 0.07043511 0.06474039
000060 0b 8e 27 be 66 05 0f be 0e 55 c1 3c 98 32 f7 bd
       -0.16362779 -0.13966903 0.023600128 -0.12070197
000070 4d 57 83 bd ef f8 b9 bd 43 2d fa bd f6 fc e7 3d
       -0.06413136 -0.090806834 -0.12215664 0.11327545
000080 3b 91 85 bd 16 ce dd bd 64 73 75 3d 40 3d 23 be
       -0.06521841 -0.108303234 0.0599245 -0.15941334
000090 a6 69 45 be ce 4b e3 bd d4 14 4d bc 84 71 ed bd
       -0.19278583 -0.11098443 -0.012517173 -0.11593917
0000a0 22 1b 21 be 42 6d 16 be e7 b0 d2 bd 2d 88 72 be
       -0.15733007 -0.14690116 -0.10287648 -0.2368476
0000b0 54 04 80 3b b4 4e 74 3d 5e a9 12 bc a2 8c ef bd
       0.003906766 0.05964537 -0.008951513 -0.116967455
0000c0 f6 79 01 be a4 68 96 bd b6 7f 4e 3c f5 b1 73 bc
       -0.1264418 -0.07344177 0.012603691 -0.014873971
0000d0 b9 9b 6a be 19 eb 57 bd 04 d1 26 be a6 bf fd bd
       -0.22910966 -0.05271444 -0.1629067 -0.1239007
0000e0 7e 97 02 bd 5f f3 4d be 21 7b bc bd 29 7f 04 bd
       -0.031882755 -0.2011237 -0.092031725 -0.032347832
0000f0 a5 7b ef bd 62 da 2f be 91 a6 1c 3b 53 63 96 bd
       -0.11693505 -0.1717315 0.0023902992 -0.07343163

std.constant7 f4 [64]
000000 a9 c2 71 3f e3 91 64 3f e7 96 72 3f da 3c 85 3f
       0.9443765 0.89285105 0.9476151 1.0409195
000010 d0 f0 84 3f d6 7e 9b 3f 47 61 86 3f eb e4 7f 3f
       1.038599 1.2148082 1.0498437 0.99958676
000020 6c 4f 80 3f 6f c1 83 3f 00 04 6f 3f 9e eb 8f 3f
       1.0024238 1.0293406 0.9336548 1.124378
000030 b0 0d 85 3f b2 42 76 3f f7 7f 90 3f b8 04 88 3f
       1.0394802 0.9619552 1.1289052 1.062644
000040 8c 12 81 3f 9c 00 85 3f 04 bc 78 3f f2 33 88 3f
       1.0083785 1.0390811 0.9716189 1.0640852
000050 1d 4a 82 3f cc 30 81 3f 40 4a 8a 3f 2a f1 81 3f
       1.0178868 1.0093017 1.0803909 1.0151722
000060 64 5e 88 3f b7 4f 85 3f 40 b9 8c 3f 8e 6e 7c 3f
       1.0653806 1.0414952 1.0994034 0.98606193
000070 fc dc 7f 3f b6 43 70 3f 5c b2 6f 3f 10 fb 97 3f
       0.9994657 0.9385332 0.9363153 1.1873493
000080 a2 d8 8a 3f 06 ec 79 3f b2 fb 89 3f 7e d5 7e 3f
       1.0847361 0.9762577 1.0779936 0.99544513
000090 f1 6f 6e 3f 9f 74 7b 3f 8a 99 82 3f 5a 65 7f 3f
       0.9313956 0.98224825 1.0203106 0.99764025
0000a0 df 8a 5f 3f fc 3e 72 3f e9 0a 69 3f 88 29 64 3f
       0.87321275 0.94627357 0.9103227 0.8912587
0000b0 95 86 70 3f b4 17 96 3f 11 e7 94 3f fb 0c 66 3f
       0.93955356 1.1725984 1.1633016 0.89863557
0000c0 7d 7e 5a 3f c4 2d 7a 3f ca 1b 81 3f 3b 28 87 3f
       0.85349256 0.9772608 1.0086606 1.0559152
0000d0 1a 9c 6d 3f 1c 0e 6e 3f 06 45 50 3f b2 b2 73 3f
       0.9281632 0.9299028 0.8135532 0.9519454
0000e0 78 e8 85 3f 7d 18 6c 3f 94 bd 83 3f e4 45 7f 3f
       1.0461569 0.92224866 1.029223 0.9971602
0000f0 e9 e5 6f 3f 57 14 5c 3f a0 67 74 3f 34 96 74 3f
       0.9371019 0.85968536 0.9547062 0.9554169

std.constant8 f4 [64]
000000 88 a3 cc 3d d0 b3 2d 3d d8 1a 67 bd 16 43 e6 3c
       0.099921286 0.04240781 -0.056422085 0.028108161
000010 60 5a fa bd 80 87 e6 37 f9 d2 79 3d ad 9a 82 3b
       -0.12224269 2.7481234e-05 0.060992215 0.003985724
000020 2c 3e 13 be f2 5a 01 3d 40 e4 2c be ad 0a 31 be
       -0.14379185 0.031580873 -0.16883945 -0.17289229
000030 fb d9 d2 3c 3a 62 34 3d 8f d7 f1 bb 11 89 a5 bc
       0.025738707 0.04403899 -0.007380433 -0.02020696
000040 89 86 bb 3d a8 ab 20 bc 65 28 b7 bd 94 da 81 3d
       0.0915652 -0.009806551 -0.089432515 0.063405186
000050 d6 84 6d be 44 5a df 3c 25 36 1d be fa d7 42 be
       -0.23195204 0.027264722 -0.15352686 -0.19027701
000060 73 9e ff bc b1 5b e8 bc 39 f1 06 be 53 f3 04 be
       -0.031203484 -0.028364034 -0.13177957 -0.12983446
000070 f7 0c 83 be 8b 08 2e bc a1 b0 5a bd a0 e7 be 3c
       -0.2559583 -0.010622154 -0.053391103 0.023303807
000080 72 69 ac 3d 79 a7 d1 3c 0f 56 d4 bd 6f 5e 1e be
       0.084185496 0.025592552 -0.10367977 -0.15465711
000090 16 f5 0b 3e 0e 3f b2 bd c4 94 53 3c 36 48 50 3d
       0.13667712 -0.08703433 0.012913886 0.050850116
0000a0 1e 80 22 3e 22 90 4d ba 33 21 ba bb db 61 b6 bb
       0.15869185 -0.0007841607 -0.005680227 -0.0055658645
0000b0 4f 92 ee bd 83 03 af bd 36 5f 46 be 05 54 4a 3e
       -0.11649 -0.08545592 -0.19372258 0.19758613
0000c0 b3 6c 31 bd 7f 0f 88 bd bb 33 eb bd b1 2d 89 bd
       -0.043316554 -0.06643581 -0.11484476 -0.06698168
0000d0 74 eb 2f bd b7 0b c9 3d 36 83 a5 3c 85 15 1a be
       -0.042949155 0.098166876 0.020204168 -0.15047272
0000e0 1c 74 2f 3d 63 be 00 be d7 da b4 3d d4 c6 d5 3d
       0.04283534 -0.12572627 0.08830803 0.10438314
0000f0 61 79 1c 3d b4 44 2d bd 94 43 38 be ae 41 51 3e
       0.038201693 -0.04230185 -0.17994529 0.20435211

std.constant9 f4 [64]
000000 20 89 1a bd 43 18 b0 bd 11 91 18 be 6f c6 59 be
       -0.03772843 -0.085983776 -0.14899088 -0.21267103
000010 b4 ef 41 3d af ec 17 3d cb a6 80 bd d8 c1 88 bd
       0.04734774 0.037090953 -0.06281813 -0.06677598
000020 03 6f d8 3d 8a ed bc 3c 8d 8b c6 bd a4 eb de 3d
       0.10568049 0.023062486 -0.09694586 0.10884789
000030 45 d1 65 bd 5c e5 c1 bd 1e 8e 8d 3c a3 23 8c bd
       -0.056107778 -0.09467575 0.01727968 -0.06842735
000040 ce 3c 70 bc f0 0a 43 bd 91 ee be bd 0e ee 68 3b
       -0.0146629345 -0.047617853 -0.09322847 0.0035542282
000050 5a 87 55 bc 4f 57 2c bd a2 f7 bf 3d d3 43 9d 3d
       -0.013032759 -0.04207545 0.09373404 0.07678952
000060 68 c7 22 3d 73 e1 22 be d8 8e 71 bd db e5 a5 bd
       0.03974095 -0.15906315 -0.058974117 -0.08100482
000070 3a 74 17 3c 33 9e 28 bd a4 2e e4 bd 3d 83 0f 3e
       0.009244019 -0.041166496 -0.111417085 0.14014907
000080 56 9c e1 bb 3a f1 a8 bd 2d f3 d3 3d 60 b6 12 be
       -0.006885092 -0.08249135 0.103491165 -0.14327383
000090 29 22 56 be df 1b 7a be 6e d7 38 bd 80 a4 0d be
       -0.20911469 -0.24424694 -0.045127325 -0.13832283
0000a0 2d 7f 1b be 77 6c ab bd 13 1b e7 bb a2 fa 30 be
       -0.15185232 -0.083702974 -0.007052788 -0.17283109
0000b0 b7 22 4f 3c 58 42 44 3d 5b 60 44 3e e2 0c 2c bc
       0.012642554 0.047914833 0.19177382 -0.010501118
0000c0 59 d1 6d bd 52 14 c5 bd e0 be 1f 3d 93 8d c1 3d
       -0.058060978 -0.096230164 0.039000392 0.09450831
0000d0 c7 a9 b4 bd c2 ef 88 3d 92 76 24 be 49 e3 c3 bd
       -0.08821445 0.06686355 -0.16060856 -0.095648356
0000e0 21 15 68 bd a0 42 2d be 48 72 f0 bc 17 e9 56 3c
       -0.056660775 -0.16919947 -0.029351369 0.013117096
0000f0 b7 e4 57 bd ff 4d f6 bd ee 65 61 3d 6f f5 97 bd
       -0.052708354 -0.12026595 0.05502885 -0.074198596

std.constant10 f4 [64, 9]
000000 c6 d1 a7 be cc a8 26 3d 9f 34 12 be 88 16 81 be
       -0.32777232 0.04068832 -0.14277886 -0.25212502
000010 72 d6 67 3e d1 1e 5c 3d cc 62 79 be ef 9f 51 3e
       0.22640398 0.053740326 -0.24354094 0.20471166
000020 23 d4 06 3e 45 40 17 3f c8 4d d8 be 49 84 a7 3d
       0.13166861 0.5908244 -0.42246842 0.08179528
000030 d0 74 e9 bc ab b2 45 3e 2a c2 40 3e 14 a7 30 3d
       -0.028498083 0.19306438 0.18824068 0.043128088
000040 5d 88 86 be d2 62 01 be de d5 21 be 1f 35 dc be
       -0.26275912 -0.12635353 -0.1580424 -0.43009278
000050 9d bb 7a bb 00 65 7e 3d c6 f2 83 be 02 90 62 bd
       -0.00382588 0.06210804 -0.2577116 -0.055313118
000060 ff 82 e9 bd fa 24 c7 3e 12 c2 8e 3e 2f 28 01 3e
       -0.11401939 0.38895398 0.2788244 0.12612985
000070 0b b6 62 bd d3 7f c7 3d 90 92 e8 3e 6f 9f 95 bb
       -0.05534939 0.097411774 0.45424318 -0.004566125
000080 a7 b2 7c 3d 15 f1 83 3b 2e 5c e1 3c df c2 0e 3f
       0.061693814 0.004026542 0.027509775 0.557661
000090 93 b2 80 bb c0 54 a1 b7 78 95 ad 3e 2a 03 99 bc
       -0.0039275377 -1.923216e-05 0.33903098 -0.018678267
0000a0 1c 70 b3 3b 01 0c 0b 3e 8d 07 5f 3e 0b 02 17 bb
       0.005476011 0.13578798 0.21780224 -0.002304199
0000b0 e3 a4 07 3e 8b 76 15 bf cd ef d2 3e 7f 73 d4 3e
       0.13246493 -0.5838401 0.41198578 0.41494367
0000c0 b0 97 d7 be 8c 1d 48 3e 3a 28 8f bd 71 f7 10 be
       -0.42107916 0.19542521 -0.069900945 -0.14156891
0000d0 07 4d 1c 3e f5 a8 89 3e 63 43 69 be 7a ff fc 39
       0.15263759 0.26886716 -0.22779612 0.0004825553
0000e0 64 5d ba 3d a6 bc 19 3e 2f 5d a2 bd 08 67 f6 3e
       0.09099844 0.1501337 -0.079279296 0.48125482
0000f0 05 65 b3 bd a3 b4 80 bd ca e4 83 3e 60 0e 92 3e
       -0.08759502 -0.06284454 0.2576049 0.28526592
000100 7e 15 c1 be 24 ce 56 3d 9b b9 d1 3b 68 6b bb bd
       -0.3771171 0.052442685 0.0064002997 -0.091513455
000110 8d fe 20 3c 42 21 b9 bd 55 41 4e be 3d 37 ed 3d
       0.009826315 -0.090395465 -0.2014211 0.115828015
000120 d9 d3 97 3e 08 8b ea 3d 58 f3 f4 bc 3a f2 e9 3d
       0.29653814 0.11452299 -0.029901192 0.11423154
000130 1e fb 2f 3e fb 16 ec bd 0a 79 80 3d b3 fb 96 be
       0.17185637 -0.11527821 0.06273086 -0.29488906
000140 79 e0 cc bc d0 e1 2d bf ea 89 12 3f 88 3c 0e 3f
       -0.02500938 -0.6792269 0.5724169 0.55561113
000150 bb aa 7a be 57 27 90 3e 1c 10 f6 3e 79 05 22 bd
       -0.24479191 0.28155014 0.48059165 -0.039556
000160 a4 ad 14 bc 39 03 99 3e 28 3f fc be 6a 20 88 be
       -0.009074602 0.2988527 -0.49266934 -0.2658723
000170 57 c8 6c 3e 91 b3 9d 3d 87 9d 82 3e 22 f1 98 bd
       0.23123299 0.07700265 0.2551081 -0.074678674
000180 1f 25 01 bd 19 cb 30 be d3 04 0c 3e 8d 7d 3d 3f
       -0.031529542 -0.17264976 0.13673715 0.740197
000190 31 50 d5 be ab 75 fe be 63 2c ec 3e 2b 05 72 3e
       -0.41662744 -0.4969915 0.46127614 0.23634784
0001a0 e0 9c 08 bf 31 4a 35 3e c1 59 8d 3e 0e 47 f9 bd
       -0.5336437 0.17704083 0.2760754 -0.12171756
0001b0 b0 6f b3 3d 34 ff 5d 3e 46 74 ac be 57 de 61 3e
       0.08761537 0.21679384 -0.3368246 0.22057472
0001c0 d4 8b 84 3e b7 59 ab be 25 27 7d 3d 84 2e 89 3e
       0.2588793 -0.33466884 0.06180491 0.267933
0001d0 4d b0 e9 bc 52 fc 07 bf 43 1f f7 bd 22 a4 1f bf
       -0.02852645 -0.53119385 -0.120665096 -0.6235982
0001e0 95 0f 5a be 8b de 87 3d 8c 54 86 be 0f 91 4c be
       -0.21295007 0.066342436 -0.2623638 -0.1997721
0001f0 ab 9d 39 be 72 3f 8e be fa af 03 be 69 7e d9 bd
       -0.18126552 -0.2778278 -0.12860098 -0.10619814
000200 d2 f8 04 bf b9 5e 31 3e 04 99 1b be a2 5e 9b bd
       -0.5194217 0.1732129 -0.1519509 -0.07586409
000210 27 b8 be 3d aa 6f 15 bf f4 cd 48 be d1 d0 c5 be
       0.09312468 -0.5837351 -0.19609815 -0.38635877
000220 75 2a d7 3e 44 56 98 3e a0 8e 18 bd 2e 4d 03 bf
       0.4202458 0.29753315 -0.037245393 -0.5128964
000230 2f c7 a3 3e 1a 53 15 bd ff d4 f5 be 5d cf 43 3b
       0.31987903 -0.036456205 -0.48014066 0.0029878237
000240 54 9d 84 be 5f a0 25 3d 04 6b 0c 3d 0e e7 fd 3c
       -0.25901282 0.040436145 0.034281746 0.030993965
000250 25 79 53 be 83 8b a3 bd 36 f6 d4 bd f8 5e de bd
       -0.20651682 -0.07985594 -0.103985235 -0.108579576
000260 df 41 98 3e 56 37 c7 3c 50 9b 22 be ec b1 fa 3c
       0.29737756 0.024318378 -0.1587956 0.030602418
000270 30 95 84 3d 97 16 23 3e 1f 1d 65 be 72 52 c6 be
       0.06473768 0.15926586 -0.2237439 -0.38734776
000280 20 1d 83 3e e7 1a 57 3d eb 66 32 3e 3e e6 8a bc
       0.25608158 0.05251589 0.17422073 -0.016955491
000290 24 4e d7 3e 1d 38 66 be b9 57 b6 3d 7c 4f 25 3d
       0.42051804 -0.22482343 0.089034505 0.040359005
0002a0 28 63 86 be bb 22 df bc a6 d6 a6 3d 77 01 01 be
       -0.26247525 -0.02723824 0.0814641 -0.12598215
0002b0 f2 d8 a7 3e 14 98 35 3e e4 8f 07 3f c3 6b 18 bf
       0.32782704 0.17733794 0.52953935 -0.5953943
0002c0 bd e6 a8 3e f1 1c a1 bd d8 a9 91 bd 97 51 1a 3e
       0.3298854 -0.07866848 -0.07112473 0.15070187
0002d0 0c 25 bf be bd 77 07 3c ca d8 d0 3e e7 77 43 be
       -0.37332952 0.008268294 0.40790397 -0.19088708
0002e0 31 eb 84 bd 63 f4 69 3e 3e 48 15 be 01 df 0a 3e
       -0.06490172 0.22847132 -0.1457834 0.13561632
0002f0 d3 41 7d bc 02 08 0a bf 28 57 8a 3e b6 16 ed 3d
       -0.015457588 -0.5391847 0.2701962 0.115765974
000300 65 f5 ab be f4 9b f5 be c4 07 84 3e d0 f9 23 be
       -0.3358566 -0.47970545 0.25787175 -0.16013265
000310 11 b0 23 3e 94 6a 23 3e 59 32 9c 3d df 17 aa be
       0.15985133 0.15958625 0.076267906 -0.33221337
000320 07 47 8d be 29 5b ab bd 8a 78 36 3e 19 10 bb be
       -0.27593252 -0.08366997 0.1781942 -0.3653572
000330 34 a8 cb bd ef 94 37 be 1f d6 ca bd db 86 90 3e
       -0.099441916 -0.17927907 -0.099041216 0.28227887
000340 57 84 ca be 6c 8c c4 be b1 06 a3 3e 6d 05 8f be
       -0.39554092 -0.38388383 0.31841043 -0.27933827
000350 6c 4c bf be cf a4 e9 bd d1 9b 02 3c 08 9f 61 bd
       -0.37362993 -0.11408388 0.00797172 -0.055083305
000360 f7 2d 61 3f fe 29 c9 be c3 d4 1b 3e a5 8b d3 bc
       0.8796076 -0.3928985 0.15217881 -0.025823424
000370 91 8e 82 bd ae c7 11 3e b0 9a 5a 3d 12 76 5a 3d
       -0.06374849 0.14236328 0.053370178 0.053335257
000380 c8 18 31 3e 6c 5c bb ba f9 b9 48 be c6 78 37 be
       0.1729461 -0.0014294512 -0.19602193 -0.17917165
000390 3b cb 7b be 4f 2f 2b 3d 11 34 73 be f9 f7 6b 3d
       -0.24589245 0.041793164 -0.2375033 0.057609532
0003a0 c4 91 e0 be 32 26 28 3d 6e f2 23 3d e6 b2 86 be
       -0.4386121 0.04105205 0.04002612 -0.26308364
0003b0 31 ed 68 be 0a aa 4f 3d 28 cc 86 3e 86 10 6a 3d
       -0.22746731 0.05069927 0.26327634 0.057144664
0003c0 35 d2 13 bd e1 94 c5 3e f9 39 ca 3e 43 bd 07 be
       -0.03608914 0.38590148 0.39497355 -0.13255791
0003d0 b4 c9 80 bd 00 46 8e be f8 b4 3a be cc 12 0f 3d
       -0.06288472 -0.2778778 -0.18233097 0.034930035
0003e0 4c f0 3b be 10 59 f4 bd 2d 8c d8 bd 42 a5 14 be
       -0.18353385 -0.1193105 -0.105736114 -0.14516166
0003f0 11 4c 06 3f 2c bb 92 bd cb 20 68 3d b5 2f 1e bd
       0.5245982 -0.071646065 0.0566719 -0.038619716

std.constant11 f4 [64, 9]
000000 78 cc 57 be 69 a5 ff bd f4 40 00 3f 12 5f 85 be
       -0.21074092 -0.12482721 0.5009911 -0.26049095
000010 29 bc c8 be 04 0e 21 ba af 11 e3 bd 93 e3 60 3d
       -0.39206055 -0.0006143751 -0.11087357 0.05490453
000020 b7 8a 10 3e 0b bd a6 3e 74 73 39 3e de 85 15 be
       0.14115416 0.32566103 0.18110448 -0.14601848
000030 41 44 b1 bd 4e e3 5e be 97 a1 cd bd 85 ce 94 3d
       -0.086555965 -0.21766397 -0.100405864 0.07265953
000040 f6 33 01 3b 41 09 57 3e 66 ef b7 be fc 69 c6 be
       0.001971481 0.20999624 -0.35924834 -0.38752735
000050 be 1c 6e bd 87 4a de 3c 22 6e 84 be 3f f7 ce bc
       -0.05813288 0.027135147 -0.25865275 -0.02526438
000060 35 09 b0 3c 1b bf 25 3f eb 1f 51 3e 0c cc ae 3b
       0.021488765 0.6474473 0.20422332 0.005334383
000070 d5 ab 88 be 62 1f 4f 3c 4d fa 8b 3e 9a c8 a1 3d
       -0.26693597 0.01264176 0.27339402 0.0789959
000080 47 ed 82 be bf 68 0c bd 30 b2 f0 3d 7d 36 36 3f
       -0.25571653 -0.03427958 0.117527366 0.7117689
000090 90 40 a0 bd 5c 20 cc 3d 91 ed 93 3e 46 2d d5 bc
       -0.07824814 0.099671096 0.28892186 -0.026022565
0000a0 4e 97 b2 bc ac 1e 8e 3e e3 29 88 3e 96 fa 97 bd
       -0.021800663 0.27757776 0.26594457 -0.07420842
0000b0 1e 70 f9 bb db 2e e8 be 7e f4 ae 3e 28 f5 cd 3e
       -0.0076122424 -0.45348248 0.34170908 0.40226102
0000c0 d6 a9 c3 be 12 48 5c be b7 a0 48 3e 6f ee 99 3e
       -0.38215512 -0.21511868 0.19592558 0.30064723
0000d0 bb 0b 9f bd 8c 46 e6 3d cb 90 01 bf 69 b6 47 be
       -0.07765909 0.112439245 -0.5061156 -0.19503178
0000e0 f8 2e d2 be 91 40 23 3e 7a 42 29 3c 80 96 86 3e
       -0.4105146 0.15942599 0.010330791 0.26286697
0000f0 4d 75 00 3e e5 12 e1 bc 90 c8 78 bd 50 2e 2b bc
       0.12544747 -0.02747483 -0.060738146 -0.0104480535
000100 d5 7c 0a bd c6 2a 67 be 84 cb 0b be ca 59 02 bf
       -0.033810455 -0.2257491 -0.13651854 -0.5091826
000110 3d 72 c7 be c4 75 0e be 59 11 03 bd da e6 4e 3d
       -0.38954344 -0.13912112 -0.031998966 0.050513126
000120 1a 2e 17 3e cf 02 11 3d b1 a4 2b 3e 6c 86 73 3c
       0.1476368 0.03540307 0.16762044 0.014863592
000130 34 e6 e8 ba 4b e9 3a 3e 62 35 e3 bd 5e 5c 45 be
       -0.0017768801 0.18253057 -0.11094166 -0.19273517
000140 75 45 0a 3e 7b f1 52 bf ca 96 c1 3e ab 2f 84 3e
       0.13503058 -0.8239972 0.37810355 0.25817618
000150 18 ac 99 3c a7 6d 52 3d 7d c5 80 3d a7 6b 07 3e
       0.018758819 0.051374104 0.06287668 0.1322466
000160 79 c4 95 bc 6d 40 2c 3d cc 08 8e be 2c 5a 8c bb
       -0.018282162 0.04205363 -0.27741086 -0.0042832103
000170 e4 0f d4 3e 59 35 3b bd b8 d5 69 3d 8c 1a b3 3e
       0.41418374 -0.045705173 0.057088584 0.3498119
000180 4f 72 2d be 85 b0 49 3d 9e 12 36 3e 8a ae 10 3e
       -0.16938137 0.049240608 0.1778054 0.14129081
000190 75 e5 ec bd fe 86 68 be a2 d6 2b 3e b0 8b f7 3e
       -0.11567203 -0.22707745 0.16781095 0.4834876
0001a0 cb 25 84 be a2 a5 01 3d ec f8 25 3f ce d1 32 3e
       -0.25810084 0.0316521 0.6483295 0.17462847
0001b0 ba c0 e6 3c 25 61 82 3e 68 fc 87 bd b9 7c c0 be
       0.028168071 0.2546474 -0.066399395 -0.37595156
0001c0 41 91 31 3d 61 c2 b5 be 18 01 66 3e bb 50 55 3e
       0.043351416 -0.35499862 0.22461355 0.20831577
0001d0 7c 64 fe bc 67 81 70 be 85 da a3 be 35 a6 e8 be
       -0.031053774 -0.23486863 -0.32002655 -0.45439306
0001e0 e2 17 71 3d 9b 6c aa 3e fb 4a bd bd c7 6c 9f bd
       0.058860667 0.33285984 -0.09242817 -0.077844195
0001f0 1f 4c 69 bd 41 27 91 be 9e a8 aa 3d 95 49 a0 be
       -0.05695736 -0.2835026 0.083329424 -0.3130614
000200 fc 8b 95 be bc 30 1e bd af 9e c2 3d e4 61 c6 be
       -0.29208362 -0.038620695 0.09502923 -0.3874656
000210 06 c1 88 3e d1 c5 4d bf e2 1f f5 bc 34 af 85 bd
       0.26709765 -0.8037997 -0.02992243 -0.06527558
000220 ab 53 ca 3d 00 0e 5c 3e b5 80 a1 3d e7 a0 8c be
       0.0987924 0.21489716 0.07885877 -0.2746651
000230 38 98 1d 3e 19 47 c3 bd 22 d2 e8 be 7f 17 55 3e
       0.15390098 -0.09535045 -0.4547282 0.20809744
000240 8a 29 db bd de 6a 5b 3e f5 04 8a bd c1 b7 39 3d
       -0.10701282 0.21427485 -0.06739227 0.045341257
000250 04 07 79 bc 2e 74 e5 3c a4 ee c8 bd 55 6b 53 bd
       -0.015199427 0.0280095 -0.09811142 -0.05161603
000260 11 b1 69 3e 97 f3 78 3e 22 89 9d be 46 86 90 3d
       0.22821452 0.24311672 -0.30768687 0.070568606
000270 2a dd e2 3d 62 df 7c be 4d f0 87 3e 26 f6 eb bd
       0.1107734 -0.24694589 0.26550522 -0.115215585
000280 42 86 4f bd a6 3a a9 3d 0a 7d 20 3e 85 37 87 be
       -0.050665148 0.082631394 0.15672699 -0.26409546
000290 7f 41 e6 3e 10 57 72 be d0 7b 4e be b9 8d 26 3e
       0.44971845 -0.23666024 -0.20164418 0.16265
0002a0 54 e5 36 ba ce cf 9f bd 58 26 a1 3e 59 8d 00 be
       -0.00069769216 -0.078033075 0.31474566 -0.1255392
0002b0 7a 17 31 3f 5a c9 92 be 73 94 10 3f af c8 96 3d
       0.6917645 -0.28669244 0.56476516 0.07362496
0002c0 71 de 81 3e 58 fa b8 3d a7 dd 76 be ef 9f 9e bd
       0.25365022 0.09032124 -0.24107991 -0.07745349
0002d0 7d 58 af be d2 5e 94 be f2 62 8d 3a a1 cd 7c ba
       -0.342472 -0.28978592 0.0010786934 -0.0009643678
0002e0 81 b9 0f 3d 89 20 59 bc 09 a5 a4 bd b7 7c 1c be
       0.03508902 -0.013252386 -0.080392905 -0.1528195
0002f0 6c a6 e1 3d 01 a2 11 be ff 48 20 be e0 b3 8b be
       0.110180706 -0.14221956 -0.15652846 -0.2728567
000300 fb 90 f0 bd 46 c2 10 3c 86 70 af be 64 94 51 be
       -0.11746403 0.008835381 -0.34265536 -0.20466763
000310 c9 54 47 be 8a 09 01 3d 73 0b 84 be fb bd c4 be
       -0.19465937 0.031503238 -0.25789985 -0.38426194
000320 56 13 0f bf a8 31 3b bd 70 9f a6 3e 88 86 cc be
       -0.5588888 -0.045701653 0.32543516 -0.3994639
000330 8d b4 98 be 19 e5 4a be 57 ea d0 3d 74 e8 8e 3d
       -0.2982525 -0.19813956 0.10200947 0.06977931
000340 ac bf a6 bd c2 ec 10 bf 66 0a 87 3e 0c 79 fc 3d
       -0.08142027 -0.56611264 0.2637512 0.12327775
000350 e7 3c b3 bd ad 74 4d be d5 5a 14 3e 3e 7b cb 3c
       -0.087518506 -0.2006404 0.14487775 0.02483904
000360 c2 10 9a 3e eb c4 a6 3e 2d f5 91 3e 94 94 96 3e
       0.3009091 0.3257211 0.28507367 0.2941023
000370 4c 5d 3a be 9c 91 bb 3e f5 cb 20 bd 1e bc cb 3b
       -0.18199652 0.3663453 -0.03925701 0.0062174937
000380 ad 14 ce 3d 7a 7f e3 3d c5 c3 6f bd ca 07 17 bf
       0.10062537 0.111082986 -0.05853631 -0.5899626
000390 80 d7 b9 be 62 9c a5 3d 2b 88 24 bf aa aa 83 3e
       -0.36297226 0.08086468 -0.64270276 0.25716144
0003a0 c1 e1 1b bf 25 4c c3 bd df 92 e8 be 3c a4 d4 be
       -0.6089135 -0.09536008 -0.45424554 -0.4153155
0003b0 9d 37 7e 3e 39 e2 83 3e 60 d6 8c 3e 03 98 35 3e
       0.24825902 0.25758532 0.27507305 0.17733769
0003c0 15 df 03 3e ef 93 8c 3e 0c 56 09 3f 54 21 0c be
       0.12878068 0.27456614 0.5364692 -0.13684589
0003d0 a7 8f 13 bf 4f ec eb bc b9 c1 c4 be 0d 20 c9 3c
       -0.5764107 -0.028799204 -0.3842905 0.024551416
0003e0 bc 34 b0 3e eb 9b 09 3c dc fb 87 be 89 3e 23 be
       0.34415233 0.00839899 -0.2655934 -0.15941824
0003f0 b6 ad df 3d c5 c3 b6 3d 52 4e d7 3c 71 43 57 be
       0.109218046 0.08924059 0.026282463 -0.2102182
